…
41763.7s 1673 2024-05-23 15:24:44.818290: E external/local_xla/xla/stream_executor/cuda/cuda_fft.cc:607] Unable to register cuFFT factory: Attempting to register factory for plugin cuFFT when one has already been registered
41763.7s 1674 2024-05-23 15:24:44.820015: E external/local_xla/xla/stream_executor/cuda/cuda_blas.cc:1515] Unable to register cuBLAS factory: Attempting to register factory for plugin cuBLAS when one has already been registered
41765.9s 1675 Overriding model.yaml nc=80 with nc=6
41765.9s 1676 
41765.9s 1677 from  n    params  module                                       arguments
41765.9s 1678 0                  -1  1       928  ultralytics.nn.modules.Conv                  [3, 32, 3, 2]
41765.9s 1679 1                  -1  1     18560  ultralytics.nn.modules.Conv                  [32, 64, 3, 2]
41765.9s 1680 2                  -1  1     29056  ultralytics.nn.modules.C2f                   [64, 64, 1, True]
41765.9s 1681 3                  -1  1     73984  ultralytics.nn.modules.Conv                  [64, 128, 3, 2]
41765.9s 1682 4                  -1  2    197632  ultralytics.nn.modules.C2f                   [128, 128, 2, True]
41766.0s 1683 5                  -1  1    295424  ultralytics.nn.modules.Conv                  [128, 256, 3, 2]
41766.0s 1684 6                  -1  2    788480  ultralytics.nn.modules.C2f                   [256, 256, 2, True]
41766.0s 1685 7                  -1  1   1180672  ultralytics.nn.modules.Conv                  [256, 512, 3, 2]
41766.0s 1686 8                  -1  1   1838080  ultralytics.nn.modules.C2f                   [512, 512, 1, True]
41766.0s 1687 9                  -1  1    656896  ultralytics.nn.modules.SPPF                  [512, 512, 5]
41766.0s 1688 10                  -1  1         0  torch.nn.modules.upsampling.Upsample         [None, 2, 'nearest']
41766.0s 1689 11             [-1, 6]  1         0  ultralytics.nn.modules.Concat                [1]
41766.0s 1690 12                  -1  1    591360  ultralytics.nn.modules.C2f                   [768, 256, 1]
41766.0s 1691 13                  -1  1         0  torch.nn.modules.upsampling.Upsample         [None, 2, 'nearest']
41766.0s 1692 14             [-1, 4]  1         0  ultralytics.nn.modules.Concat                [1]
41766.0s 1693 15                  -1  1    148224  ultralytics.nn.modules.C2f                   [384, 128, 1]
41766.0s 1694 16                  -1  1    147712  ultralytics.nn.modules.Conv                  [128, 128, 3, 2]
41766.0s 1695 17            [-1, 12]  1         0  ultralytics.nn.modules.Concat                [1]
41766.0s 1696 18                  -1  1    493056  ultralytics.nn.modules.C2f                   [384, 256, 1]
41766.0s 1697 19                  -1  1    590336  ultralytics.nn.modules.Conv                  [256, 256, 3, 2]
41766.0s 1698 20             [-1, 9]  1         0  ultralytics.nn.modules.Concat                [1]
41766.1s 1699 21                  -1  1   1969152  ultralytics.nn.modules.C2f                   [768, 512, 1]
41766.1s 1700 22        [15, 18, 21]  1   2118370  ultralytics.nn.modules.Detect                [6, [128, 256, 512]]
41766.1s 1701 Overriding model.yaml nc=80 with nc=6
41766.1s 1702 
41766.1s 1703 from  n    params  module                                       arguments
41766.1s 1704 0                  -1  1       928  ultralytics.nn.modules.Conv                  [3, 32, 3, 2]
41766.1s 1705 1                  -1  1     18560  ultralytics.nn.modules.Conv                  [32, 64, 3, 2]
41766.1s 1706 2                  -1  1     29056  ultralytics.nn.modules.C2f                   [64, 64, 1, True]
41766.1s 1707 3                  -1  1     73984  ultralytics.nn.modules.Conv                  [64, 128, 3, 2]
41766.1s 1708 4                  -1  2    197632  ultralytics.nn.modules.C2f                   [128, 128, 2, True]
41766.1s 1709 5                  -1  1    295424  ultralytics.nn.modules.Conv                  [128, 256, 3, 2]
41766.1s 1710 6                  -1  2    788480  ultralytics.nn.modules.C2f                   [256, 256, 2, True]
41766.1s 1711 7                  -1  1   1180672  ultralytics.nn.modules.Conv                  [256, 512, 3, 2]
41766.1s 1712 8                  -1  1   1838080  ultralytics.nn.modules.C2f                   [512, 512, 1, True]
41766.1s 1713 9                  -1  1    656896  ultralytics.nn.modules.SPPF                  [512, 512, 5]
41766.1s 1714 10                  -1  1         0  torch.nn.modules.upsampling.Upsample         [None, 2, 'nearest']
41766.1s 1715 11             [-1, 6]  1         0  ultralytics.nn.modules.Concat                [1]
41766.1s 1716 12                  -1  1    591360  ultralytics.nn.modules.C2f                   [768, 256, 1]
41766.1s 1717 13                  -1  1         0  torch.nn.modules.upsampling.Upsample         [None, 2, 'nearest']
41766.1s 1718 14             [-1, 4]  1         0  ultralytics.nn.modules.Concat                [1]
41766.1s 1719 15                  -1  1    148224  ultralytics.nn.modules.C2f                   [384, 128, 1]
41766.1s 1720 16                  -1  1    147712  ultralytics.nn.modules.Conv                  [128, 128, 3, 2]
41766.1s 1721 17            [-1, 12]  1         0  ultralytics.nn.modules.Concat                [1]
41766.1s 1722 18                  -1  1    493056  ultralytics.nn.modules.C2f                   [384, 256, 1]
41766.1s 1723 19                  -1  1    590336  ultralytics.nn.modules.Conv                  [256, 256, 3, 2]
41766.1s 1724 20             [-1, 9]  1         0  ultralytics.nn.modules.Concat                [1]
41766.1s 1725 21                  -1  1   1969152  ultralytics.nn.modules.C2f                   [768, 512, 1]
41766.1s 1726 22        [15, 18, 21]  1   2118370  ultralytics.nn.modules.Detect                [6, [128, 256, 512]]
41766.3s 1727 Model summary: 225 layers, 11137922 parameters, 11137906 gradients, 28.7 GFLOPs
41766.3s 1728 
41766.4s 1729 Transferred 349/355 items from pretrained weights
41766.5s 1730 [34m[1moptimizer:[0m RMSprop(lr=0.001) with parameter groups 57 weight(decay=0.0), 64 weight(decay=0.001), 63 bias
41766.5s 1731 Model summary: 225 layers, 11137922 parameters, 11137906 gradients, 28.7 GFLOPs
…
